dqn_agent.pt (torch, 73884 bytes, 6 tensors)

net.0.weight f4 [128, 6]
0	0xbb484f80	-0.0030564964
1	0x3e60421c	0.21900219
2	0xbeac0915	-0.3360068
3	0xbe99d40a	-0.30044585
4	0xbe210328	-0.1572386
5	0x3de03450	0.10947478
6	0xbd85e03d	-0.06536911
7	0x3ea70e5c	0.32628143
8	0xbd854152	-0.065065995
9	0x3e18eeb7	0.14934812
10	0xbebc3071	-0.36755708
11	0xbeb18230	-0.34669638
12	0xbedcafe9	-0.4310296
13	0xbea081f1	-0.31349137
14	0xbe8b2f03	-0.27184305
15	0xbdb1f96e	-0.08690153
16	0x3d74b0d6	0.059738956
17	0x3e1ee71d	0.1551785
18	0xbe924cc2	-0.28574187
19	0xbe4d9bf6	-0.20079026
20	0x3d12f2d3	0.035876106
21	0x3e63e4a1	0.22255184
22	0xbea004bf	-0.3125362
23	0x3e4d4da3	0.20049147
24	0xbee5ca45	-0.44880882
25	0x3e99e254	0.30055487
26	0x3f1d4e0c	0.61447215
27	0xbec98bce	-0.39364475
28	0xbe222d4a	-0.15837589
29	0x3c317af1	0.010832534
30	0xbe6b4e3e	-0.22979066
31	0x3f22ae5d	0.6354731
32	0xbec335b0	-0.38126898
33	0xbe381645	-0.17977245
34	0xbe4247b4	-0.18972665
35	0xbe4d4b4f	-0.20048259
36	0xbeb26ddd	-0.34849444
37	0x3f0f5680	0.55991364
38	0x3ec04c32	0.37558132
39	0x3e32d6bd	0.17464729
40	0x3d2e9fec	0.042632982
41	0xbe886c57	-0.26645157
42	0xbcd7644f	-0.026292948
43	0xbec329ee	-0.38117927
44	0xbe970877	-0.29498646
45	0xbecd6e85	-0.40123382
46	0x3e2746ca	0.16335598
47	0x3e513b88	0.20432866
48	0x3d1ab25d	0.037767757
49	0x3e6b1843	0.22958474
50	0x3ee9b609	0.45646694
51	0x3eeb6682	0.45976645
52	0x3e7dba99	0.24778213
53	0x3e0fbb37	0.1403626
54	0x3e8c25ac	0.2737249
55	0xbe762589	-0.24037756
56	0x3d9bcd04	0.07607463
57	0xbea20e8a	-0.31651717
58	0xbe90defc	-0.28295124
59	0xbe57f4b1	-0.21089436
60	0x3ec5f38d	0.38662377
61	0x3ed18619	0.4092262
62	0xbd2eab63	-0.042643916
63	0x3e29c6f4	0.16579801
64	0x3e98ec20	0.2986765
65	0x3cd3d697	0.02585916
66	0xbe571e59	-0.2100767
67	0x3ea83f2c	0.32860696
68	0x3ea82c1a	0.32846147
69	0x3f04197f	0.51601404
70	0xbfb951c7	-1.4478081
71	0xbe97150f	-0.29508254
72	0x3ea5597c	0.32294834
73	0xbd498df6	-0.04920765
74	0xbc8dd8f8	-0.017315373
75	0x3deca7c3	0.115554355
76	0xbe11ed78	-0.14250743
77	0xbf3c8c85	-0.73651916
78	0xbd9501b3	-0.07275715
79	0xbdc1cbf1	-0.09462727
80	0xbe81a2e9	-0.25319603
81	0x3d4ee4de	0.050511234
82	0x3d5e1773	0.05422158
83	0xc007da96	-2.1227164
84	0x3e776926	0.24161205
85	0x3e834981	0.25642017
86	0x3e7b8f72	0.24566439
87	0xbee843cc	-0.45364225
88	0x3e1025e4	0.14076954
89	0xbf31e634	-0.6949189
90	0x3ec6e61f	0.38847443
91	0x3ed84c7b	0.4224585
92	0x3ecee1fb	0.40406784
93	0x3e0038c3	0.12521653
94	0xbee82e8b	-0.4534801
95	0xbe6d8f9c	-0.23199314
96	0xbcd5fda6	-0.026121926
97	0x3e9326a0	0.28740406
98	0xbe2d8b88	-0.16947758
99	0xbea3f224	-0.32020676
100	0x3d800f9b	0.062529765
101	0x3e3d1a4c	0.18467063
102	0xbe364758	-0.17800653
103	0xbdd26e88	-0.102749884
104	0xbec71d73	-0.38889655
105	0xbbf072c0	-0.007337898
106	0xbe9d6820	-0.30743504
107	0xbea13b3d	-0.31490508
108	0x3d325782	0.043540485
109	0x3d8f22b5	0.06989042
110	0xbe9ada0b	-0.3024448
111	0x3e4dee90	0.20110536
112	0xc04c7d10	-3.1951332
113	0x3e3e1b63	0.18565135
114	0x3e8a3842	0.26996046
115	0xbeb04401	-0.34426883
116	0xbdd01720	-0.10160661
117	0x3b0fa694	0.0021919357
118	0x3d3a83ea	0.04553596
119	0x3daa2aaa	0.08308919
120	0x3e5f4695	0.21804269
121	0xbef15705	-0.47136703
122	0xbe901162	-0.28138262
123	0x3ef6a8b7	0.48175594
124	0xbfdf8d21	-1.7464944
125	0xbef01ded	-0.46897832
126	0x3cf1f1a9	0.029534178
127	0x3d15f0db	0.03660665
128	0xbd461dee	-0.048368387
129	0xbf20cc7c	-0.6281202
130	0xbba310ab	-0.004976352
131	0x3ec1e5f6	0.3787076
132	0xbe882be2	-0.2659598
133	0xbd57ecb3	-0.05271597
134	0x3e920253	0.28517398
135	0xbd7986bc	-0.06091951
136	0x3c81e9c0	0.015858531
137	0xc08f5880	-4.479553
138	0x3e40c331	0.1882446
139	0x3ec5140f	0.38491866
140	0x3eeed2aa	0.466451
141	0x3e4e0a4e	0.20121118
142	0x3eb3a8b2	0.35089642
143	0xbd63e2b5	-0.055636127
144	0xbed7e91b	-0.42170033
145	0xbe342b85	-0.17594726
146	0x3ef1a131	0.47193292
147	0xbcdb52df	-0.026772914
148	0xbe6f4320	-0.2336545
149	0xbea1df20	-0.31615543
150	0xbe2a6306	-0.16639337
151	0xbe1da6d1	-0.15395667
152	0xbe20436f	-0.15650724
153	0x3e80cb88	0.25155282
154	0x3e6540c3	0.22387986
155	0xbfc63c0f	-1.5487078
156	0x3e6b5813	0.22982816
157	0xbea39005	-0.31945816
158	0xbdb0c230	-0.08630788
159	0xbe47d0e3	-0.19513278
160	0xbd9e0ae1	-0.07716919
161	0xbde220ef	-0.11041438
162	0xbebb9120	-0.3663416
163	0xbeb47a7e	-0.35249704
164	0xbd82d4d0	-0.06388247
165	0x3bad0000	0.005279541
166	0xbe3de86e	-0.18545696
167	0x3e1d7a4c	0.15378684
168	0xbebc220e	-0.36744732
169	0xbdc9ac55	-0.09847323
170	0x3e86d075	0.26330915
171	0xbf9d5f66	-1.2294738
172	0x3e8cda77	0.27510425
173	0xbe84e147	-0.25953123
174	0xbebca29d	-0.36842814
175	0x3ec32264	0.38112175
176	0x3dc0f784	0.0942221
177	0xbf1aa27f	-0.604042
178	0x3e81c6a9	0.25346878
179	0xbfa6d28a	-1.3033001
180	0x3e3fe2a6	0.18738803
181	0x3daa51fe	0.0831642
182	0x3ed1d31e	0.40981382
183	0x3dc4500f	0.095855825
184	0x3e4fb3b4	0.20283395
185	0x3e19ce8c	0.15020198
186	0xbe50f7c0	-0.20407009
187	0xbdd2c2ba	-0.102910474
188	0xbe88f6ec	-0.26750886
189	0x3c0a3391	0.008435146
190	0x3dff4ef2	0.124662295
191	0x3dac5d80	0.08416271
192	0xbebc939a	-0.3683136
193	0x3da1d5d5	0.07902113
194	0xbec370aa	-0.38171893
195	0xbee8d138	-0.4547212
196	0xbf0d88cc	-0.5528686
197	0x3e4cfdf9	0.20018758
198	0xbe791e89	-0.24328054
199	0xbc11ee00	-0.008906841
200	0xbcbcf479	-0.023065792
201	0x3e6446c5	0.22292621
202	0xbeacfd8f	-0.337872
203	0xbea42582	-0.32059866
204	0xbdb05ff3	-0.08612051
205	0x3ee2ee81	0.4432259
206	0xbca7a053	-0.02046219
207	0x3ea5094d	0.32233658
208	0x3e1c732c	0.1527831
209	0x3d6f54f6	0.058430634
210	0xbb472a00	-0.0030390024
211	0xbda547b4	-0.08070317
212	0x3d51cd90	0.05122143
213	0xbdbeead4	-0.09322134
214	0xbb3bfe00	-0.0028685331
215	0x3d555bf0	0.05208963
216	0xbf001d4a	-0.5004469
217	0xbd2818bd	-0.041039217
218	0x3ed8c348	0.42336488
219	0xbedb3576	-0.42814225
220	0xbc1bcff6	-0.009510031
221	0x3eb78263	0.35841665
222	0x3eb3af7b	0.35094818
223	0x3e85f965	0.26166835
224	0xbee0f5e0	-0.43937588
225	0x3e687a45	0.22702892
226	0xbe87b506	-0.26505297
227	0xbdb29faa	-0.0872186
228	0x3d67e4a0	0.05661452
229	0x3e2c8c45	0.16850384
230	0x3e465880	0.19369698
231	0x3ec07e67	0.37596437
232	0x3df8a6e3	0.12141206
233	0x3ee0132a	0.4376462
234	0x3ee0101a	0.43762285
235	0xbe8425b8	-0.25810027
236	0x3edf0094	0.4355513
237	0xbf253fcb	-0.64550465
238	0x3beac88d	0.007165021
239	0x3e4e726b	0.20160834
240	0x3e66ab01	0.2252617
241	0x3eeb00d9	0.45899084
242	0xbd654a7d	-0.05597924
243	0xbc00b2ee	-0.00785516
244	0x3d9ffa44	0.07811406
245	0xbf005c9c	-0.5014131
246	0x3ef1aca6	0.47202033
247	0xbeacd88e	-0.33758968
248	0x3c9c403b	0.019073596
249	0xbdba2134	-0.09088364
250	0xbe64dbea	-0.22349516
251	0x3d97ed27	0.0741828
252	0x3f0dd057	0.55396026
253	0xbdf467fc	-0.11933896
254	0xbe78310d	-0.24237461
255	0xbefcf87c	-0.4940833

net.0.bias f4 [128]
0	0xbea05eab	-0.31322226
1	0xbe0a4467	-0.13502656
2	0x3d6318f7	0.05544373
3	0xbeeb5c5b	-0.459689
4	0x3ee6d1bc	0.4508189
5	0x3eeb6440	0.45974922
6	0x3ec95152	0.39319855
7	0xbeb61662	-0.35563952
8	0x3f26458e	0.6494988
9	0xbe77cd3f	-0.24199389
10	0x3f25383b	0.64538926
11	0xbe8b4cae	-0.2720694
12	0xbed4977e	-0.4152183
13	0x3e5eabfb	0.21745293
14	0x3e9d595f	0.30732247
15	0x3e6c8745	0.23098476
16	0xbe72b8c8	-0.23703301
17	0xbe2f5c32	-0.17125013
18	0xbe18b1e1	-0.14911605
19	0xbed0a511	-0.40750936
20	0x3d5b46b3	0.05353422
21	0x3e63f03e	0.22259614
22	0xbc215444	-0.009846751
23	0x3e814c3c	0.25253475
24	0x3f0a7fe4	0.54101396
25	0x3e549b43	0.20762353
26	0xbe327601	-0.17427827
27	0xbe2c0baa	-0.16801324
28	0xbeaeeac7	-0.34163496
29	0xbdd85a70	-0.105641246
30	0x3dbfb3d8	0.09360474
31	0xbdf2bb52	-0.11852135
32	0x3e7387e2	0.23782304
33	0xbe5be4df	-0.21474026
34	0x3ef8c4b5	0.48587576
35	0xbe92aada	-0.28645974
36	0x3ddca40f	0.10773479
37	0x3f0fddf0	0.56198025
38	0x3f222958	0.63344336
39	0xbbd6c8d9	-0.0065547046
40	0x3e47f3e7	0.19526635
41	0x3e559cea	0.20860639
42	0x3ccc8371	0.02496502
43	0xbe6954f1	-0.22786309
44	0x3e8ac33a	0.2710207
45	0xbe9158f0	-0.28388166
46	0x3e4a4365	0.19752271
47	0x3e860897	0.2617843
48	0xbe4572b6	-0.1928204
49	0x3ef4f029	0.47839478
50	0x3e15f08a	0.1464254
51	0x3ea5a98f	0.32355925
52	0x3f2393e5	0.63897544
53	0x3dcb4da9	0.09926922
54	0x3ef067ce	0.46954197
55	0xbe86ea6b	-0.26350722
56	0x3e0418a4	0.12900025
57	0x3df9789a	0.12181206
58	0xbdfe1f51	-0.12408317
59	0xbe46fc5a	-0.19432202
60	0xbd1cd8e8	-0.038292795
61	0xbc2839dc	-0.010267701
62	0x3d044192	0.032289095
63	0x3e0ea648	0.13930619
64	0x3e870b0d	0.2637562
65	0xbb6faa24	-0.0036569918
66	0xbee070b5	-0.4383599
67	0x3e964ee8	0.29357076
68	0x3c78c802	0.015184404
69	0xbe0177cd	-0.12643357
70	0xbe1d2d0a	-0.15349212
71	0x3e89b2b2	0.26894146
72	0x3e32a2df	0.17444943
73	0x3ec0e292	0.3767286
74	0x3e420f9d	0.18951268
75	0x3ed09243	0.4073659
76	0x3ecb0d62	0.39658648
77	0x3dfe5e21	0.124202974
78	0x3ed1ad75	0.4095265
79	0x3ec7af57	0.3900096
80	0xbd7f179b	-0.06227837
81	0x3e2cef1d	0.1688809
82	0x3e80da26	0.25166434
83	0x3ee2b76e	0.4428057
84	0xbe8fe027	-0.28100702
85	0xbe94b709	-0.29045895
86	0x3e950eee	0.29112953
87	0xbe619ce6	-0.22032508
88	0x3caa78c6	0.020809542
89	0xbe404179	-0.18774976
90	0x3e8f7687	0.28020117
91	0xbec29bd4	-0.38009512
92	0x3ef24312	0.47316796
93	0x3f13630c	0.5757301
94	0x3e2bbed3	0.16772012
95	0xbd85910e	-0.065218076
96	0x3f038a97	0.51383346
97	0xbe649414	-0.22322112
98	0x3dc5b9af	0.09654557
99	0xbc93c8d8	-0.018040106
100	0xbd46f157	-0.048570003
101	0x3e98a0e2	0.29810244
102	0x3e889b30	0.266809
103	0x3d88ce25	0.06679944
104	0xbed0fd65	-0.40818325
105	0x3cd72504	0.026262768
106	0xbd27744d	-0.040882397
107	0x3e453384	0.19257933
108	0x3ed84088	0.42236733
109	0x3f1ec20a	0.6201483
110	0xbd9fb1c3	-0.07797577
111	0xbda0f8f6	-0.078599855
112	0xbe927a58	-0.28608966
113	0xbec0a530	-0.37626028
114	0xbd14ddd6	-0.03634437
115	0x3f0016e3	0.5003492
116	0x3ed4ebfc	0.41586292
117	0x3e2359c4	0.15952212
118	0x3ef51864	0.4787017
119	0xbeeae6ea	-0.45879298
120	0x3e73614d	0.23767586
121	0x3f06cf9b	0.5266053
122	0xbe07da2b	-0.13266818
123	0x3f1ccbdc	0.61248565
124	0x3ec4aad6	0.38411587
125	0x3f03d179	0.51491505
126	0xbdcd01d5	-0.10010115
127	0x3ebd3057	0.36950943

net.2.weight f4 [128, 128]
0	0xbda078af	-0.078355186
1	0xbd583bf2	-0.052791543
2	0x3c9a0ad3	0.01880399
3	0xbc44aa7a	-0.012003535
4	0x3e2053dc	0.1565699
5	0x3d8a7772	0.06761064
6	0x3d79f0e0	0.061020732
7	0x3dce79ac	0.10081801
8	0x3d36b935	0.04461022
9	0xbc3adae0	-0.011404723
10	0xbdb41df2	-0.08794774
11	0xbd3801b8	-0.044923514
12	0xbbad042a	-0.0052800374
13	0xbd883f78	-0.06652731
14	0xbd96c8ed	-0.07362542
15	0xbcbb7fa9	-0.022888022
16	0x3d01741b	0.031604867
17	0x3caee89c	0.021351151
18	0x3d86fbf0	0.06591022
19	0x3d069aeb	0.032862585
20	0xbdf102dc	-0.117681235
21	0xbc354aba	-0.0110651795
22	0x3cf89574	0.030344702
23	0xbb462acd	-0.0030237914
24	0x3d1c4e80	0.0381608
25	0xbdd3fcbe	-0.10350941
26	0xbdbdc8de	-0.09266828
27	0x3d5e02fe	0.054202072
28	0x3d140a1f	0.036142465
29	0xbe17d711	-0.14828135
30	0x3c7e6928	0.015528001
31	0xbda6b248	-0.08139473
32	0x3dd6afbd	0.10482738
33	0x3d175fd9	0.03695664
34	0x3d8fee27	0.07027846
35	0xbdb27bce	-0.0871502
36	0xbda3015a	-0.07959242
37	0x3caede20	0.021346152
38	0x3d817603	0.06321337
39	0x3d0a61c6	0.03378465
40	0x3c7634f3	0.0150272725
41	0xbdc8952a	-0.09794076
42	0x3babb777	0.0052403766
43	0xbdafdf19	-0.085874744
44	0x3b399584	0.0028317878
45	0xbd6d25de	-0.05789744
46	0xbd845a80	-0.06462574
47	0x3b0722d3	0.0020620122
48	0xbd306eb6	-0.043074332
49	0xbcdfac13	-0.027303731
50	0xbddb2326	-0.107000634
51	0xbdca0830	-0.09864843
52	0x3c2c3cd7	0.010512552
53	0xbda80d6c	-0.08205685
54	0xbd98047a	-0.07422729
55	0xbd40ca08	-0.047067672
56	0xbdd03a79	-0.10167403
57	0xbdb58609	-0.08863456
58	0x3d07fb80	0.033198833
59	0x3c0865fe	0.008325098
60	0x3b05a715	0.0020393778
61	0xbd6e2af2	-0.058146425
62	0x3d38773b	0.045035582
63	0xbb819b60	-0.0039552897
64	0xbda2933d	-0.0793824
65	0x3d3ed7f1	0.046592657
66	0x3d9218a5	0.07133607
67	0xbdaba8ef	-0.08381831
68	0xbda9fffa	-0.08300777
69	0x3d4c15ec	0.049825594
70	0x3d93f17e	0.07223795
71	0xbd7ea4f4	-0.06216903
72	0xbdf14bb0	-0.11782014
73	0x3d685680	0.056723118
74	0xbcb6dbbc	-0.022321574
75	0x3b506fc1	0.0031804892
76	0x3cc3ebb7	0.023916109
77	0x3d348100	0.044068336
78	0xbd91cb11	-0.0711881
79	0xbc97220b	-0.01844885
80	0x3d1120d5	0.0354317
81	0x3d9124f9	0.0708713
82	0xbe055119	-0.13019218
83	0x3d02b74d	0.03191309
84	0xbd312193	-0.04324491
85	0xbce54bc3	-0.027990228
86	0x3b9d2dfa	0.0047967406
87	0x3dec9e0f	0.11553585
88	0x3c12a35f	0.0089500835
89	0xbd6b0d70	-0.057385862
90	0xbd6c7bbd	-0.057735194
91	0xbbf5c140	-0.007499844
92	0xbd5bbc90	-0.053646624
93	0x3d340327	0.04394832
94	0xba9896d7	-0.0011641633
95	0x3db55f9a	0.08856125
96	0x3b81a549	0.003956471
97	0x3d439bef	0.04775613
98	0x3d9afc74	0.07567683
99	0xbc19b8e0	-0.009382457
100	0xbcae3818	-0.021266982
101	0xbde0f974	-0.109850794
102	0xbcb962bc	-0.022630088
103	0xbce1385f	-0.0274927
104	0xbbf63c90	-0.007514544
105	0xbdb89aae	-0.09013878
106	0x3d9cb1a9	0.076510735
107	0xbdc12dab	-0.094325386
108	0xbd2c729f	-0.0421015
109	0x3d021184	0.031754985
110	0xbd4c97c4	-0.049949422
111	0xbe002ad8	-0.12516344
112	0xbd36d86d	-0.044639993
113	0xbcc67e88	-0.024230257
114	0x3dce7c9c	0.10082361
115	0xbbd3cb04	-0.0064634103
116	0x3cb5556d	0.02213546
117	0xbd8997e4	-0.06718424
118	0x3d59354d	0.053029347
119	0x3d292883	0.0412984
120	0x3cf5caec	0.030003987
121	0xbc8d1354	-0.01722113
122	0xbd38809c	-0.045044526
123	0x3ad02e8d	0.0015883014
124	0x3ce6970b	0.028148195
125	0xbd93b0cb	-0.07211455
126	0xbcb76796	-0.02238826
127	0x3d29c3c7	0.041446473
128	0xbbcaeec0	-0.006193012
129	0xbddd1fcd	-0.10797081
130	0xbd50beff	-0.050963398
131	0x3d12d18e	0.03584438
132	0xbcf596e6	-0.02997918
133	0x3d00d19e	0.031449907
134	0x3d21124a	0.039324082
135	0x3c52a9b8	0.012857847
136	0xbd1ad91a	-0.0378047
137	0xbce5d780	-0.02805686
138	0xbd103fbf	-0.035217043
139	0x3c83cc14	0.016088523
140	0xbdc63db0	-0.09679735
141	0xbd4fd13c	-0.05073665
142	0xbd969272	-0.07352151
143	0x3cd74427	0.026277615
144	0xbd8f388c	-0.06993207
145	0x3da55e7d	0.08074663
146	0xbcbaa738	-0.022784814
147	0xbd4f672b	-0.050635498
148	0x3d2df14e	0.042466454
149	0x3c57e3b8	0.013176851
150	0x3d7ab222	0.061205037
151	0x3bd18ec3	0.0063951924
152	0xbddfcf58	-0.109282196
153	0x3cea071c	0.028567843
154	0xbc885a90	-0.016644746
155	0xbd2002b8	-0.039065093
156	0x3d65e9fe	0.056131355
157	0x3d16963a	0.03676436
158	0xbdd6feea	-0.1049784
159	0xbd1924e7	-0.03738871
160	0x3d94a77d	0.07258508
161	0x3d0c367a	0.03423164
162	0x3d33114e	0.043717675
163	0xbcf823ee	-0.03029057
164	0xbd47b744	-0.04875876
165	0x3d3e3ce9	0.046444807
166	0x3bce793c	0.0063010734
167	0x3dadc681	0.08485127
168	0xbd88a8fc	-0.06672856
169	0xbd6873f9	-0.056751225
170	0xbc29be10	-0.010360256
171	0xbdaa71b5	-0.08322469
172	0x3ba911d3	0.0051595955
173	0x3d85848b	0.06519421
174	0x3cadd1dc	0.021218233
175	0xbd2027e0	-0.039100528
176	0x3d338046	0.043823503
177	0xbd844541	-0.06458522
178	0x3d6c57e4	0.057701007
179	0xbdc5dea1	-0.09661604
180	0xbde9ac9c	-0.11409876
181	0xbcab19c4	-0.02088631
182	0x3d2a0de3	0.04151715
183	0x3c10ff68	0.008849956
184	0x3b80cc06	0.0039305715
185	0xbdc32a6f	-0.09529578
186	0x3ba84e17	0.005136262
187	0xbc21d260	-0.009876817
188	0x3d111d18	0.035428137
189	0x3d7fafe6	0.06242361
190	0x3d1d5efe	0.03842067
191	0xbd17455d	-0.036931384
192	0xbd1223b0	-0.035678566
193	0xbd631041	-0.055435423
194	0xbd02f33c	-0.031970248
195	0x3ce165a5	0.027514288
196	0xbd845a98	-0.06462592
197	0x3d60d726	0.05489268
198	0xbd0f8f55	-0.0350488
199	0xbca8a304	-0.020585544
200	0x3af68f40	0.0018811002
201	0xbda61d7d	-0.08111093
202	0xbcfdf89d	-0.031002337
203	0xbd1e2a41	-0.038614515
204	0xbd00d6ce	-0.031454854
205	0xbc90bf00	-0.0176692
206	0x3d204af6	0.03913399
207	0x3d859707	0.06522947
208	0xbd755fd4	-0.059905842
209	0x3cdb68dc	0.0267834
210	0xbd8dfd08	-0.069330275
211	0xbdd90c9f	-0.105981104
212	0x3cdd565c	0.027018718
213	0x3aaa4300	0.0012989938
214	0xbd8da6ae	-0.06916557
215	0xbdae9805	-0.08525089
216	0xbd0c2882	-0.03421832
217	0x3cf1d76c	0.029521666
218	0xbdafbb16	-0.08580606
219	0xbdafdaa2	-0.08586623
220	0x3c37bb28	0.011214055
221	0xbdb48940	-0.08815241
222	0xbddce041	-0.107849605
223	0xbd0b7d0f	-0.034054812
224	0xbd30aba3	-0.043132436
225	0xbda47e43	-0.08031895
226	0xbd71be46	-0.05901935
227	0xbccab524	-0.024744578
228	0xbdaab234	-0.08334771
229	0xbc4b8b68	-0.012423374
230	0xbdb20744	-0.08692792
231	0xbdb9fded	-0.090816356
232	0x3d0e4adc	0.03473936
233	0xbdbbc544	-0.09168485
234	0xbd892ec2	-0.066983715
235	0x3cafdfa3	0.021468943
236	0xbc467cbb	-0.012114699
237	0x3d4f6655	0.0506347
238	0xbcc18ae8	-0.023625806
239	0xbd6131d4	-0.05497916
240	0xbc304336	-0.010758212
241	0x39ea7500	0.0004471913
242	0x3d8a0da9	0.06740887
243	0xbdf139e2	-0.117786184
244	0xbbce3820	-0.0062933117
245	0x3c29c122	0.010360988
246	0xbd475e59	-0.04867396
247	0xbd37f774	-0.044913724
248	0x3d2ef62e	0.042715244
249	0xbdad7336	-0.0846924
250	0xbba17291	-0.0049269875
251	0xbdc9c0f1	-0.09851254
252	0x3c6f35b5	0.014600207
253	0xbdd925eb	-0.106029354
254	0x3d00155a	0.031270362
255	0xbde58b11	-0.112081654

net.2.bias f4 [128]
0	0xbd134886	-0.035957836
1	0xbd41ae7f	-0.047285553
2	0x3ec3e057	0.38257095
3	0xbd7cc56a	-0.061711706
4	0xbde6ce2e	-0.112697944
5	0xbdb05d37	-0.08611529
6	0xbc3b6eb1	-0.011439965
7	0x3ed54469	0.41653755
8	0x3cf95c80	0.030439615
9	0xbd404d3d	-0.04694866
10	0xbd3a979f	-0.045554753
11	0x3ec4ef9b	0.38464054
12	0x3e8cc4c8	0.27493882
13	0xbd868bf8	-0.06569666
14	0x3d4778b7	0.048699107
15	0x3d402fc5	0.046920557
16	0x3ecb0cc2	0.3965817
17	0x3ea13599	0.31486204
18	0xbd28756d	-0.04112761
19	0xbda8acb6	-0.08236067
20	0xbd2f259b	-0.042760473
21	0xbd9a528e	-0.07535277
22	0xbc8091b2	-0.015694473
23	0x3edf9eca	0.43675834
24	0x3d567f8d	0.052367736
25	0x3e94623e	0.28981203
26	0xbc6ed3af	-0.0145768365
27	0x3e9a9fdb	0.30200085
28	0x3eaec3dd	0.34133807
29	0xbd347160	-0.044053435
30	0x3b822c2e	0.003972552
31	0xbd1c9541	-0.038228277
32	0xbd86b9c4	-0.06578401
33	0x3ae566e7	0.0017501981
34	0x3da6a2cd	0.081365205
35	0x3eaba575	0.3352467
36	0x3d95e574	0.07319155
37	0x3ea3daa3	0.32002744
38	0x3d5a4fb1	0.053298656
39	0xbc8f6de7	-0.01750846
40	0x3eca7b56	0.39547223
41	0xbc59f265	-0.01330242
42	0x3c067ae0	0.008208007
43	0xbda2b685	-0.07944969
44	0xbcc92c3b	-0.024557224
45	0x3ebbab90	0.3665433
46	0xbce19115	-0.027535
47	0x3ed3db3e	0.41378206
48	0xbd4f8b79	-0.05067012
49	0xbd2a21d4	-0.041536167
50	0xbd87241d	-0.06598685
51	0xbd22519e	-0.039628617
52	0x3d954eb9	0.07290406
53	0x3b1db0e7	0.002406174
54	0x3e75c902	0.2400246
55	0x3eb99099	0.36243132
56	0x3c4181a8	0.011810698
57	0x3ed0b5c2	0.4076367
58	0xbc3360ed	-0.010948402
59	0x3d876b0e	0.06612216
60	0x3d806f74	0.06271258
61	0xbdbab729	-0.09116966
62	0x3cf63c3f	0.030058024
63	0xbd3f3997	-0.04668578
64	0xbdc7d4f9	-0.09757418
65	0x3d80a342	0.06281139
66	0xbd638236	-0.0555441
67	0xbd1c1139	-0.038102362
68	0x3da898f4	0.082322985
69	0xbd3f12db	-0.04664884
70	0x3edfa3ce	0.4367966
71	0x3ecda4ad	0.401647
72	0xbc1f89f4	-0.00973748
73	0x3c8a61e6	0.016892385
74	0x3e8755ff	0.26432797
75	0xbd5f1255	-0.054460842
76	0xbd992bdb	-0.07479068
77	0x3eea79a4	0.4579593
78	0xbd9f950d	-0.07792101
79	0x3d5503e0	0.05200565
80	0xbc146cd7	-0.009059153
81	0xbcdbae2b	-0.026816448
82	0x3d87d415	0.06632248
83	0x3cf1ac9d	0.029501254
84	0x3cf5d739	0.030009853
85	0xbccba9c0	-0.024861217
86	0x3ea7ca8a	0.32771713
87	0xbdbbe434	-0.09174386
88	0xbc743532	-0.014905261
89	0xbc194b96	-0.0093564
90	0xbd969df6	-0.073543474
91	0xbc84ab68	-0.016195014
92	0x3eaf424a	0.34230262
93	0x3d4673e1	0.048450354
94	0x3c0018a8	0.0078183785
95	0x3e973211	0.29530385
96	0xbd4d93f3	-0.050189923
97	0xbd82f7a9	-0.06394894
98	0xbd751f63	-0.059844386
99	0xbdadb877	-0.084824495
100	0xbda5e217	-0.08099764
101	0x3ed2632c	0.41091287
102	0xbd6912fc	-0.05690287
103	0x3e9450c6	0.28967875
104	0x3ee3a370	0.4446063
105	0xbda15b4a	-0.0787874
106	0x3ecd837e	0.40139383
107	0xbda9f7c4	-0.08299211
108	0xbdafadf2	-0.08578099
109	0x3ca2c8ab	0.019871077
110	0x3e8b144b	0.2716392
111	0x3eea081a	0.45709306
112	0x3edf1198	0.4356811
113	0x3ae8e1e7	0.001776752
114	0xbd62510c	-0.055253074
115	0x3c8d4e85	0.017249355
116	0x3ed125cd	0.40849152
117	0x3c00bf24	0.0078580715
118	0x3b42d93c	0.0029731533
119	0x3eb3dfe6	0.35131758
120	0x3ecfdcd8	0.40598178
121	0x3edfb92a	0.43695956
122	0x3eb70259	0.3574398
123	0x3ea1cd79	0.31602076
124	0x3ecd965c	0.40153778
125	0xbc9de999	-0.019276427
126	0x3cc71c98	0.024305627
127	0xbd3d66b3	-0.04624052

net.4.weight f4 [3, 128]
0	0x3ccb48c3	0.024814969
1	0xbd896c97	-0.06710165
2	0x3e41d142	0.18927482
3	0x3cdcd9b4	0.026959278
4	0xbbf49050	-0.0074634925
5	0x3d11f88c	0.035637423
6	0x3d2aac83	0.041668426
7	0x3e8f4ebe	0.27989763
8	0xbd8c7a1f	-0.0685923
9	0x3c3a0075	0.011352648
10	0x3e1861c4	0.14881045
11	0x3e899e62	0.2687865
12	0x3d83dbf6	0.064384386
13	0x3c505be4	0.012717221
14	0x3c1ca74e	0.009561373
15	0xbca0ba9d	-0.019620234
16	0x3e7d4cc3	0.24736314
17	0x3e8153de	0.25259298
18	0xbd0068ac	-0.031349823
19	0x3e2fd110	0.17169595
20	0xbd430168	-0.047608763
21	0x3d653104	0.055954948
22	0x3be8263f	0.0070846374
23	0x3e590bb3	0.21195869
24	0xbc68e1fc	-0.014214035
25	0x3e7a4f6a	0.24444357
26	0xbd83bb9c	-0.06432268
27	0x3e4bf713	0.1991847
28	0x3e949f31	0.29027703
29	0xbcf23f18	-0.029571101
30	0x3d0937bc	0.033500418
31	0xbd32c16c	-0.043641493
32	0xbd0dfce1	-0.034664992
33	0xbd18f242	-0.03734041
34	0x3d18a094	0.037262514
35	0x3e6cc6b8	0.2312268
36	0xba860ad9	-0.0010226622
37	0x3e4fc656	0.20290503
38	0xbd38a4f8	-0.0450792
39	0x3d7f72fc	0.062365517
40	0x3e69b65b	0.2282347
41	0xbca562e4	-0.020188756
42	0xbd2d5e7b	-0.04232643
43	0x3d1bdf51	0.038054768
44	0xbd50fdf9	-0.051023457
45	0x3e8700a7	0.26367685
46	0xbd7ba538	-0.06143686
47	0x3e778af3	0.24174099
48	0xbd34e4af	-0.044163402
49	0x3c2a2b20	0.010386258
50	0x3db8e425	0.0902789
51	0xbdf1163a	-0.117718175
52	0xbd873986	-0.066027686
53	0xbc105ea5	-0.0088116275
54	0x3e24db9a	0.16099396
55	0x3e311f6a	0.1729714
56	0xbc855504	-0.01627589
57	0x3e81ca8d	0.25349846
58	0xbd67d090	-0.056595385
59	0xbd5e092d	-0.05420797
60	0xbd79d4c6	-0.060993932
61	0xbda14441	-0.078743465
62	0xbc1eec47	-0.009699888
63	0x3d1c39fc	0.038141236
64	0xbd1c8aa1	-0.038218144
65	0xbcdc7f54	-0.026916184
66	0xbcde2eb9	-0.027121888
67	0xbd556da3	-0.05210651
68	0x3d97ada2	0.07406165
69	0xbd91b21b	-0.07114049
70	0x3e7a2a92	0.24430302
71	0x3e86204b	0.26196513
72	0xbd57ee1f	-0.052717324
73	0xbd244a53	-0.040109944
74	0x3e54a70d	0.2076685
75	0xbcf562d0	-0.029954344
76	0x3d42a996	0.04752501
77	0x3e740e10	0.2383349
78	0xbd8f8d04	-0.070093185
79	0x3d870935	0.06593553
80	0x3cc9c8a9	0.024631815
81	0xbd0ddc8b	-0.034634154
82	0x3c98f9fb	0.018673887
83	0xbca3729b	-0.01995211
84	0xbd097061	-0.03355444
85	0xbc869c3c	-0.01643192
86	0x3df7b1c1	0.12094451
87	0x3e88b34e	0.266993
88	0x3c05d9bd	0.008169589
89	0xbd420ca9	-0.047375355
90	0x3cf65424	0.030069418
91	0x3d74efc6	0.05979898
92	0x3e29db0e	0.16587469
93	0xbd834cf0	-0.06411159
94	0xbda58dd0	-0.08083689
95	0x3e5cf227	0.21576749
96	0xbbaaf4a1	-0.0052171503
97	0xbd911b34	-0.07085267
98	0x3efab0f0	0.48963118
99	0x3bfbe004	0.007686617
100	0x3c9b98a8	0.01899369
101	0x3e84bf44	0.25927174
102	0x3daa68cb	0.08320769
103	0x3e0ec2ea	0.13941541
104	0x3e577b52	0.21043137
105	0xbd497760	-0.04918611
106	0x3e75cc0a	0.24003616
107	0x3ba4d458	0.005030196
108	0xbc740232	-0.0148931015
109	0x3c81b535	0.015833477
110	0x3e191651	0.1494992
111	0x3e6b0816	0.22952303
112	0x3e83f222	0.2577067
113	0x3d4dc3e5	0.050235648
114	0x3ced9ad9	0.029004501
115	0xbd0ace3c	-0.033888087
116	0x3e8d5642	0.27604872
117	0x3dae4a69	0.08510286
118	0xbd8ca776	-0.06867878
119	0x3dcb3018	0.099212825
120	0x3e956fb8	0.29186797
121	0x3e94670b	0.28984866
122	0x3e7e5ba3	0.24839644
123	0x3e85dfc1	0.26147273
124	0x3e452624	0.1925283
125	0x3d049a6c	0.03237383
126	0x3d454102	0.0481577
127	0x3d896423	0.06708553
128	0xbd48ce02	-0.04902459
129	0x3d220d76	0.03956362
130	0x3e4fbd61	0.20287086
131	0xbcc2caae	-0.023778286
132	0xbd1a732b	-0.03770749
133	0x3d0a221c	0.033723935
134	0xbd112252	-0.03543312
135	0x3e8881c1	0.26661494
136	0x3d8df1f8	0.069309175
137	0x3d6ce0ef	0.0578317
138	0xbdf4f676	-0.11961071
139	0x3e8feb9f	0.28109452
140	0x3e033cd0	0.12816167
141	0xbd996ebd	-0.07491825
142	0xbd923d0a	-0.071405485
143	0x3dd14ec4	0.102201015
144	0x3e805cb3	0.25070724
145	0x3e8d9d3e	0.2765903
146	0x3d63f6df	0.055655356
147	0x3e1df0a3	0.15423827
148	0xbcd9dd5c	-0.02659481
149	0x3b202971	0.0024438764
150	0xbd17e012	-0.037078924
151	0x3e4cb2e8	0.19990122
152	0x3bf89bac	0.007586917
153	0x3e5c41f1	0.2150953
154	0x3cdd693f	0.027027724
155	0x3e33df95	0.17565759
156	0x3e5d34b4	0.21602136
157	0xbd8de3d9	-0.06928224
158	0xbceb7319	-0.028741406
159	0xbca802c4	-0.020509131
160	0x3aedd200	0.001814425
161	0x3c5614be	0.013066469
162	0xbd1ba418	-0.03799829
163	0x3e1bf4cf	0.15230106
164	0xbc3ad595	-0.011403461
165	0x3e8d3818	0.2758186
166	0x3d99c921	0.075090654
167	0xbd7f68fc	-0.06235598
168	0x3e24bff7	0.16088854
169	0x3d7fab67	0.06241932
170	0xbc91377a	-0.017726649
171	0xbc29f5f3	-0.01037358
172	0xbd8602c5	-0.06543497
173	0x3e5345c5	0.20632084
174	0x3d22e035	0.0397646
175	0x3e8fdad6	0.28096646
176	0xbc205bcc	-0.009787511
177	0xbced4673	-0.028964257
178	0x3c0214ac	0.007939499
179	0xbde82272	-0.11334695
180	0x3c2f9080	0.010715604
181	0xbd8fc231	-0.07019461
182	0x3e4dcef3	0.20098476
183	0x3e4ae9e2	0.19815782
184	0xbbf894b0	-0.0075860843
185	0x3e3362ae	0.17518112
186	0xbd92ae0f	-0.07162105
187	0xbc75f2d1	-0.015011505
188	0xbd8e1378	-0.06937307
189	0xbcad05b3	-0.021120882
190	0x3d3177d3	0.043327164
191	0xbd860964	-0.0654476
192	0xbd12df7d	-0.035857666
193	0x3d4fd2da	0.050738193
194	0xbd130572	-0.035893865
195	0xbe3bc530	-0.1833694
196	0xbce6419f	-0.028107462
197	0x3db587e7	0.08863812
198	0x3e72607a	0.23669615
199	0x3e6aa834	0.22915727
200	0xbc5773c7	-0.013150162
201	0xbcca9bfa	-0.024732579
202	0x3e35999f	0.17734383
203	0x3da3f6d1	0.08006061
204	0xbd8ba7a1	-0.06819082
205	0x3e910aca	0.28328544
206	0xbd997ff7	-0.074951105
207	0xbd79b663	-0.060964953
208	0xbd928cc9	-0.07155759
209	0x3d3adfd7	0.045623627
210	0x3c816b0b	0.015798112
211	0x3d10880a	0.035285987
212	0xbd4b73f1	-0.049671117
213	0xbd3292fc	-0.043597206
214	0x3e51668d	0.20449276
215	0xbe634502	-0.22194293
216	0xbd7a25d5	-0.061071236
217	0x3c87e90d	0.01659062
218	0xbbc04880	-0.0058680177
219	0xbcb046b8	-0.021518096
220	0x3e43f74a	0.19137302
221	0xbd6b8b5b	-0.057505947
222	0x3d31d3ca	0.04341487
223	0x3e2109b9	0.15726365
224	0xbc710add	-0.014712063
225	0xbc602572	-0.013680803
226	0x3ef3f991	0.47651342
227	0xbda1ac43	-0.078941844
228	0xbd8b767e	-0.0680971
229	0x3e972cbc	0.29526317
230	0xbcf5ea66	-0.030018996
231	0x3e2a0d23	0.16606574
232	0x3e945a75	0.28975263
233	0x3d0cf4a0	0.03441298
234	0x3e3b3043	0.18280129
235	0xbd914553	-0.07093301
236	0xbd36b4bb	-0.04460595
237	0x3de0d0f5	0.109773554
238	0x3e4c986f	0.19980024
239	0x3e88c5f4	0.26713526
240	0x3e365bb9	0.17808427
241	0xbd85bf26	-0.06530599
242	0xbbf6c88a	-0.0075312303
243	0x3c7bfd0a	0.015380153
244	0x3e91c7cb	0.28472742
245	0xbd0b8aec	-0.034068033
246	0xbd0f9034	-0.035049632
247	0x3e344f03	0.17608266
248	0x3e8c0a1c	0.27351463
249	0x3e99cc36	0.30038613
250	0x3e8fcff0	0.2808833
251	0x3e58db7e	0.2117748
252	0x3e434f98	0.19073331
253	0xbd5e3d3e	-0.054257624
254	0xbcd0097b	-0.025395146
255	0xbdc57450	-0.096413255

net.4.bias f4 [3]
0	0x3ec2b294	0.3802687
1	0x3f02d6a4	0.51108766
2	0x3ec5e129	0.38648346
